weight.npy (npy, 1432 bytes, 1 tensors)

array f8 [163, 1]
0	0x403584d0be74af5a	21.518810180175343
1	0x3fcd64896f9a4d31	0.2296306414542442
2	0xbfd5588cb0c7e6bb	-0.333529636991084
3	0x3fadf5df5f4720b5	0.05851648366984944
4	0xbfd0e97ac6f10520	-0.2642504637515959
5	0x3fcdacaab9929e74	0.23183187543076011
6	0x3fa7ffa8343c837e	0.046872383476745036
7	0x3f90335dfdc962c1	0.015820950140865934
8	0xbfb313c97edf4d1e	-0.07452067706553975
9	0x3fd7652130ff1d58	0.36554746422594553
10	0xbfe7cd1b02e9ee8a	-0.7437872940931396
11	0x3fb8f0a639c64a6c	0.09742201719772375
12	0xbfcd4f1d7d533558	-0.22897690410028804
13	0xbfe0a5290a6f0275	-0.520161171320139
14	0x3fd8c43ef156c360	0.3869778973412874
15	0xbfaa2b8f742e9750	-0.051113589222309685
16	0xbfc826f2860f96d3	-0.1886885790437903
17	0xbfc9ce3a373eb49e	-0.20160606095797545
18	0xbfb80a0dbcd448f9	-0.09390340671624021
19	0xbfdb28efbb6611d7	-0.4243735628190541
20	0x3fc5705035d0b509	0.16749003055284842
21	0xbfa675a3ff3bcf6a	-0.043866276651811045
22	0x3fd58986264448f4	0.33651880013452673
23	0x3fc6bed5673aa20f	0.1776987794921898
24	0xbfaa726446dcef27	-0.051653989458343035
25	0xbfe23db967e2df93	-0.5700346974399387
26	0x3fd74e43d78876a2	0.36415191696310434
27	0x3fc3d1fbcf1c358b	0.15484569180300087
28	0xbfa2d360f8c49246	-0.036768942229433096
29	0xbf8f37e66c35d128	-0.015243339707673956
30	0x3fb7a7b801feb2da	0.09240293549255388
31	0x3fe537293e2945c7	0.662983533295283
32	0xbfd173236edd283e	-0.27265249086906695
33	0x3fd1cfe34de9253b	0.27831347092122244
34	0xbfb5409e0ee0acc7	-0.08301723349784416
35	0xbfc952b9586be6d2	-0.19783703629928212
36	0x3fcbf311e0e70257	0.2183554027706289
37	0x3fecb37cc75512cf	0.8969100850304929
38	0xbf9309e108dbea6e	-0.01859237305232358
39	0x3faf05960a4dffc2	0.060589493520637486
40	0xbfd8f7e9a510752a	-0.39013138885077814
41	0x3fd147a1bbb29ce0	0.26999705629209636
42	0xbf7ec8acec7910af	-0.0075155978043463375
43	0xbf9e9159d60fddfd	-0.029851344766909083
44	0xbfd360fabc08e857	-0.302794154765825
45	0xbff001090bcf7c1b	-1.000252767691342
46	0x400d76d8d4eeca58	3.6830307612774895
47	0xbfbc999fea4dd563	-0.1117191264182416
48	0x3fda643e3af3e15c	0.412368352480845
49	0xbfc7d29047fce6ab	-0.18611339106592104
50	0x3fcc2a65b556b1ab	0.22004386286188313
51	0xbfc0e359db6cf990	-0.13193820203919104
52	0x3fc3b361618e1ffa	0.15391175521313
53	0x3fd32f9b87e4edbb	0.29978073378489584
54	0xbfc5a2459b0b6986	-0.1690146452954872
55	0xbffcc7384aa106a1	-1.798637668151436
56	0xbf987c988d358adf	-0.0239127956568933
57	0xbfc3a2f6ef7be060	-0.15341078465985714
58	0x3fd2095bb6b364c7	0.28182118265028716
59	0xbfdd1c607f15853c	-0.45485699091485166
60	0xbfe7f8d5fa0c450e	-0.7491254695652587
61	0x3fe92b5e2a33a49c	0.7865439247372197
62	0xbfd0bf5215a4b92e	-0.2616772853242705
63	0x3ff6ee59297564e5	1.4331905002093717
64	0xc010af604a7bef37	-4.171265758337362
65	0x3f7e6ef80b72f193	0.007430046963403564
66	0xbfe437c33aeec2b1	-0.6318069602039796
67	0xbfaf86cd999ab5a5	-0.061575341225174975
68	0xbfd08a4f75f66347	-0.25844179649134386
69	0x3fc6b293b19307b7	0.17732473536130808
70	0xbfc3142ce1753c0a	-0.14905320175827824
71	0xbfa446a11dd86800	-0.03960135926554642
72	0xbfc95e85fc651d25	-0.19819712470982967
73	0xbfd10b7abbc4898c	-0.26632564865772035
74	0xbfb44c6a2b793f94	-0.0792909961830886
75	0x3fc2568fa60b83d6	0.1432666359678751
76	0x3fd1a6d209dddbc7	0.27580691302813104
77	0x3fa6047cbfda8b1a	0.04300298540080956
78	0xbfd27ac5cd20c69b	-0.2887434485629485
79	0x3fbcb5d99b93a65d	0.11214981125126529
80	0xbfafa0304db1b5df	-0.06176901768126774
81	0x3fae55ede17be6d7	0.05924933793535352
82	0xbfd416da1eecc318	-0.3138947774887568
83	0xbfbf5dcc2a9539ad	-0.12252498664495333
84	0xbfe5b0a48cc2349e	-0.6778128384772975
85	0xbfaf956383fbaff4	-0.06168662057993393
86	0x3faaf3593caacaa8	0.052637852340372604
87	0x3fbe55b0901f7fb6	0.11849502104405371
88	0xbfb6c0d40b3b5df7	-0.08887982629982348
89	0xbfc30bc313830720	-0.1487964482567401
90	0x3fb2de1b6cf8f0cb	0.0737015858694036
91	0x3fe8cf11cd84cb2e	0.7752770437276462
92	0xbfb2d73535c951e8	-0.07359631121773413
93	0xbfa6080bd2ee4483	-0.04303013753736542
94	0xbfe0ff7218b8d21a	-0.5311823351717664
95	0xbfcd01c00bef4ef1	-0.2266159113192923
96	0xbf99d6ede046fafe	-0.02523395234470182
97	0x3fce8dc48e301b03	0.23870140974778317
98	0xbfe577eb15cc8ee0	-0.670888464523582
99	0xbff53dd196e2151c	-1.3275924581406064
100	0x401f7c56890ea59a	7.871423856276488
101	0x3fb8f559c0922b13	0.09749375297012035
102	0x3fe6ebbff6da4a08	0.7162780591336864
103	0x3fb33eab9d368fe3	0.07517502392016655
104	0x3fd0efd8664f8bcf	0.2646389960411257
105	0x3fb385e10530bfbb	0.07626158119887709
106	0x3f9256c94691f777	0.017909188205968953
107	0x3fafb9bade4a265c	0.06196388209816625
108	0x3fd0173b53fb42d2	0.25141795350377294
109	0xbfe854cc80444e2f	-0.7603514199458398
110	0xbfa3f366da84ec16	-0.038966383146963476
111	0xbfc5f4d6f24a6143	-0.1715344126757917
112	0x3fd131c77920b9af	0.2686632807625768
113	0x3faf588780350e55	0.0612222999575606
114	0xbfdfba2ea10a88d2	-0.4957386562983973
115	0x3f94eb9a07ba02c2	0.020429999085993307
116	0xbfcfe4621419d8c0	-0.24915719968311656
117	0x3ff25317254959d8	1.1452857452874152
118	0xc02244cd1cfeb46c	-9.134377389995471
119	0x3fa07b036cc5481b	0.032188517596878984
120	0xbff4516f0add8fab	-1.269881288951164
121	0xbfbfc3a30ae99ce1	-0.12407893196506194
122	0xbfc44538024a45fa	-0.15836238967726485
123	0xbfd6cd0619ba954e	-0.3562636615045748
124	0x3f99dc1666b5a37c	0.025253629702465016
125	0x3fb7912920bd4a55	0.09205872582723747
126	0xbfbef7500981ea86	-0.12096119148365334
127	0xbff691a5114d0dcf	-1.4105578113384245
128	0x3fcb35ce9d939ae2	0.21257956213158652
129	0x3fb3532189b90a1c	0.0754872285115557
130	0x3fc48935699b8310	0.16043727547278097
131	0xbfa6e17b71299b19	-0.04468904262903645
132	0xbff4951a181cb7eb	-1.2864018384821019
133	0x3ff008fbea1bc552	1.0021933693754659
134	0xbfb825c6dea20d89	-0.09432642875076715
135	0x3fcceab99bae6026	0.22591323949450376
136	0x3fee41a8e870f52e	0.9455151119106284
137	0xbfb44e666a45b2e8	-0.07932128996408105
138	0x3fd28350c3e9c3fa	0.28926486141341423
139	0x3fd1281251622238	0.2680707735785606
140	0xbfcd640f1d95f40a	-0.22961605972878402
141	0x3fb1b3a8c0aca2e0	0.06914763168300508
142	0xbfc5105ac5914bc4	-0.16456160208562498
143	0xbfc13012fd9f2968	-0.13427960761903113
144	0xbfd3efb40d472249	-0.31150533005396547
145	0x4004464969520224	2.5343197086479154
146	0x3fd5c16514ccb3f6	0.3399288848038958
147	0x3fd7605935216a64	0.3652556437352017
148	0x3f9f8487a95662f8	0.030778999052560402
149	0xbfd79a5a3574fa19	-0.36879592152027524
150	0x3fe637383306d381	0.694240665112929
151	0x3ff2317d2dced0b8	1.137082270562173
152	0x3ffa30dd7f2733b4	1.6369299857062574
153	0x3fe8cd94b447a715	0.7750953217593827
154	0x402e8f9fcdb0dd4c	15.280516078796289
155	0xbfc6ad1bf928e3a5	-0.1771578756904805
156	0x3fe930bc636cc96c	0.7871992055791401
157	0x3fd11269b71dce39	0.2667488373037688
158	0xbfb6ab944feeb2ea	-0.08855559302783048
159	0x3fb8164fd282a8d6	0.09409045113958156
160	0xbf7fb56169f233f3	-0.0077413373211472234
161	0xbfc1632c33a7e468	-0.13583900949723504
162	0x3fcd6042dfc503e4	0.22950015951394598
